checkpoint_actor_2.pth (torch_old, 143663 bytes, 6 tensors)

fc1.weight f4 [200, 25]
00000000: 1af4 ba3e 48a9 043e 8aa2 27bd f8db 8c3e
00000010: fa55 633e 542c 1e3f a070 17bd 53be b13e
00000020: e954 a43e 1566 3c3e 23f9 fabd 9840 e93e
00000030: 5d08 103e b222 de3e c2a0 f4bd 8e5c fd3e
00000040: c2f1 843e ffca 573e 60c6 08be fad1 ef3e
00000050: dd5c 7b3e 8fe1 ad3e 8369 ffbd 5fde e63e
00000060: 07d3 52bd a165 da3e fc88 90bf 3d68 b0bb
00000070: e19e a83d f961 153e 8f82 a0bd b741 503d
00000080: 0c95 f53d b484 e83e d601 a0bf 86a6 9a3d
00000090: d72a 1b3e 92b7 e63e 9842 bb3e 3e18 273e
000000a0: 492b 063e d2ce ac3e 6ca1 aabf 60bc e43c
000000b0: 3de5 bdbd ad98 4e3f 60e6 f63e 4084 393d
000000c0: f6c7 f1bd 78e7 b03e 93df d33e 1d8c 51be
000000d0: f690 d03c 3df0 ae3d ea41 14bf c342 fc3d
000000e0: 945a d1bc 6486 b13d 18c2 e63e 9feb d7be
000000f0: 500c 00be 1b4c 9abb 6863 3cbf d0db 2d3f
00000100: 8fad e6bd 76ee a53c c5fa 163f dc97 0fbf
00000110: a35a 403b f4b1 5c3d 82c4 54bf be76 993f
00000120: fd6a 63bd 6148 093e 377d 7abe c856 043f
00000130: fa01 543d 49fc 65bd 6cec 153e 01fb ecbd
00000140: d273 d2be b743 3fbd b4b4 0d3e dd54 173f
00000150: b3e4 ecbc 6620 45be 4e02 143d 61d4 70bd
00000160: 30d1 f0be 6209 1ebe 1b77 133e f0d5 143f
00000170: 4304 08be b862 b5bd 8de0 7e3e c515 d23d
00000180: 13d9 aabe 0e9e 91bd e782 8e3e c815 6fbf
00000190: dd1f db3d e339 303f 9025 0abe 0206 b53e
000001a0: 04b5 003f 95c4 883e 3d79 07be 78da cf3e
000001b0: bc27 1a3e 80e7 4b3f c6a7 40be 1058 8b3e
000001c0: 3a62 583e dc1f 2a3e 0179 57be b2ff 633e
000001d0: c037 f93d 052b 603f 8653 8cbe f98b 853e
000001e0: 03ab 783d 8983 0cbe 0239 91be 9a4d 9c3e
000001f0: 7de9 093e 99d0 c73e 2c7c 253e 2fa9 76be
00000200: cbaa 013d 3a26 293e 4c7f 1ebe 5b9b 5dbe
00000210: c34c 7039 f51e b73e 0e29 423e 82ff 47be
00000220: 59f0 3f3e 72f6 043e 8880 cdbe 65b5 28be
00000230: 7a2d 333e 37c9 ba3e af05 d33e 203f 113b
00000240: de4d db3e 7158 f43d 6448 1bbf 54e3 ddbd
00000250: aade dc3e 36f2 563f fe6e 0e3b 5294 37bf
00000260: 5c74 13be 5961 de3d c931 4a3f 1f82 d73e
00000270: 262f 84bd 227d fe3d 306a 0d3d b1e2 39bf
00000280: 19dd aabe 5907 b23c 7a34 993e c804 3fbd
00000290: d811 e8be 15c8 a43d 78c6 133d 278c 4cbf
000002a0: 15ff cabe 0e8c a53d ebe5 89be f6e4 cfbe
000002b0: 0462 c3be af7a 59bd ac34 843e 0086 8f3e
000002c0: 2005 94bd 88b7 5ebe 9e9f 3cbe e9b4 8ebd
000002d0: 1f02 10bd 1cdc 28be 1751 4cbe 07ef b03e
000002e0: d590 823d dc03 e3bd 4580 0e3f 0ee4 4bbe
000002f0: 1c6e a6be dc28 b1bd 3986 f03e 3a00 a63e
00000300: 21fc 6b3e 7252 b9be 621e 0ebe ec00 05be
00000310: 6021 84bf 27d3 e7be 1a8b 26be 2a1a 9a3d
00000320: 33ab ae3e f309 7c3e a1b6 82be ef59 d03e
00000330: 81b2 56bd 91ad 44bf ae20 48be 3bc8 fe3e
00000340: 9e67 b73e ce96 543e e6df 173e 4af1 ffbd
00000350: ee93 9c3d 5c21 83bf 481b ef3d 8ca5 1bbe
00000360: ddb0 f53e be64 9c3e ae00 3a3c 17b7 00be
00000370: e133 1e3e edcb fcbf 3a16 1abc 06a6 33be
00000380: 61c9 63be fd22 2f3f 1355 b6be 1e5c 37be
00000390: dbf8 9bbe 6c97 86be 8705 ffbe 41d3 15be
000003a0: 9032 adbe 6e44 303f 22ad 1bbf 4ce4 ffba
000003b0: e9a9 22bc 36c7 6dbe 8898 6639 8808 a3bd
000003c0: f1d2 113c c4ca 223f e757 49bf c98f 7cbc
000003d0: 3fa2 193e 4ce6 1abe fc39 003f 8fab f8ba
000003e0: bf9d 753e ee22 3bbd 5aa7 433d 62e7 b4be
000003f0: bbe9 1f3e 1e46 7c3d 8f62 11be b724 193f
0.3651436 0.129552 -0.040926494 0.27511573 0.22200766 0.6178639 -0.036972642 0.34715518
0.3209603 0.18398316 -0.1225455 0.45557094 0.1406569 0.43385845 -0.119447246 0.49484676
0.25965697 0.2107353 -0.13356924 0.46839887 0.24547143 0.3396115 -0.12471297 0.4509153
-0.051470783 0.42655662 -1.1291804 -0.00538352 0.08233429 0.14588155 -0.07837402 0.05084392
0.11991319 0.45413744 -1.250056 0.07551293 0.15153061 0.45061928 0.36574244 0.16317841
0.1310245 0.3375154 -1.3330512 0.027921855 -0.09272239 0.80701715 0.48222637 0.04529214
-0.11805718 0.34551597 0.4138151 -0.20463605 0.025459748 0.085419156 -0.57913077 0.12317421
-0.025555886 0.08668211 0.45069957 -0.42171952 -0.12504697 -0.0047087795 -0.7358918 0.6791353
-0.112635724 0.020255309 0.58976394 -0.56091094 0.0029350899 0.053880647 -0.8311235 1.1989362
-0.055521954 0.13406517 -0.24461828 0.5169492 0.051759697 -0.0561488 0.14640969 -0.11571313
-0.4110399 -0.046695437 0.13838464 0.59113866 -0.028917646 -0.1925064 0.03613501 -0.05879629
-0.47034597 -0.15433267 0.14400904 0.5813894 -0.13282876 -0.0885672 0.24890347 0.102580585
-0.3336874 -0.07110225 0.27834246 -0.9339261 0.10699437 0.6883833 -0.13490891 0.35356146
0.5027621 0.2671248 -0.13229842 0.40596366 0.1505422 0.79650116 -0.18814 0.27215624
0.2113122 0.16613716 -0.21042253 0.22265509 0.121688366 0.8756564 -0.27407473 0.26083353
0.060709964 -0.13722052 -0.28363806 0.30527955 0.13467975 0.39026335 0.16160649 -0.24087976
0.03165702 0.16518489 -0.15478247 -0.21641295 0.0002291678 0.35765806 0.18960974 -0.19531062
0.18744029 0.12984636 -0.40137124 -0.16475447 0.17497817 0.3648164 0.41215274 0.002216287
0.42832845 0.11930931 -0.60657334 -0.10834375 0.4313863 0.83963335 0.0021733637 -0.71710694
-0.14399856 0.10858411 0.78982216 0.42091462 -0.06454305 0.12426211 0.034525096 -0.7261153
-0.3337181 0.02173202 0.2992285 -0.04663542 -0.45326114 0.08045975 0.036077946 -0.79901356
-0.39647737 0.08083354 -0.26933226 -0.4060437 -0.38160717 -0.053095516 0.25821435 0.2803192
-0.0722754 -0.21749699 -0.18420264 -0.069680996 -0.035158273 -0.16490215 -0.19952808 0.34557363
0.06375281 -0.110847205 0.55664474 -0.19911215 -0.32505882 -0.086503714 0.46977404 0.32422048
0.23045398 -0.36195713 -0.13878778 -0.12988633 -1.0322685 -0.45278284 -0.16264 0.07524522
0.3411499 0.2461317 -0.2552996 0.40693614 -0.05241633 -0.7682734 -0.19543716 0.4976214
0.3582124 0.20760652 0.14831504 -0.12497194 0.07645403 -1.0244555 0.11675125 -0.1519987
0.47986498 0.3054561 0.011352701 -0.12569843 0.15449478 -1.9749733 -0.009404713 -0.17543802
-0.22244789 0.6841276 -0.3561178 -0.17906234 -0.304633 -0.262874 -0.49808905 -0.14631368
-0.3382764 0.68854415 -0.60811055 -0.0019522994 -0.009928205 -0.23220524 0.00021991332 -0.079606116
0.00890039 0.63590646 -0.78649753 -0.01541514 0.15003298 -0.15126914 0.5008848 -0.0018972027
0.23985957 -0.04568761 0.04776702 -0.3533278 0.15616505 0.061590306 -0.14197753 0.5982165

fc1.bias f4 [200]
00000000: 432e 4dbe 947f 62be 75fa 97be 8cee 01bf
00000010: 822e b2be 8f2f 95be 0d95 a93c c9f0 a5be
00000020: 877f 8dbe 3d5d ffbe 1e23 83be 6769 1cbf
00000030: 0e5b 4f3e 22ff 81be 092c fabe 4c66 0cbf
00000040: fdec eabe 83e6 45bf f97c debe 7555 0ebf
00000050: af86 f7be 5898 0d3d 84b4 573d f553 e2be
00000060: 77df c4be d1ae ab3d dd59 3cbe addb bfbe
00000070: ac7f 5cbd 95ff c1be 83d6 14bf 0a92 08be
00000080: 4da5 80be 268d 28bf 4bee b9be dda7 a8be
00000090: aa79 15bf 119c b2bc 2584 86be 802e 22bf
000000a0: c1ec ab3e 1ac6 b2be 87fc 08be b46c adbe
000000b0: 7c0f 1cbf 5d8f 03bf 45a3 99be d534 e03e
000000c0: a483 2bbf 5f9f babe 4031 2bbf b874 f9be
000000d0: e91c a8be c223 05bc 7eb0 f43d ba0c c7be
000000e0: 48e6 9c3d d646 3e3e 6cd0 0ebf 0638 cd3c
000000f0: d56c 28bf ca61 223f 25c2 c9be 7fce 8dbb
00000100: 341d d4bd 02f2 4a3e ebdd fb3d ba24 c8be
00000110: 4e89 9abe f44d 5f3e bf28 bbbe 1ded c3be
00000120: 91c2 b6be dac6 b4be fc65 e3be 7b4e 25bf
00000130: 5794 adbe 8395 b6be 0e29 1f3e 01fd 8ebd
00000140: f566 f8be 46e1 87bc 8fe0 a9be 4d1e f63d
00000150: 4cf8 e63c 9b4f 37be 59ad efbe 36e9 2dbe
00000160: 2db9 25bf d1de 30bf 1919 98be f326 fdbe
00000170: 5e1e 15bf 342b b83b a782 2fbf cf91 34be
00000180: d770 f7be 1b45 d0bd d5e4 ddbe 8dc0 92be
00000190: b108 313e 132d a9be 030e 133e 097a 0e3f
000001a0: fd14 8ebe af59 11bf 3694 30bf 596d 58be
000001b0: e28f 16bf d77b 00be e719 dbbe c1bc e8be
000001c0: 128f 14bf a1d5 2abf 4eb1 03bf 5d6b d6be
000001d0: c882 eebe 3172 8abe ad04 ebbe a5f7 08bf
000001e0: e0fa 9ebe abad 03bf a1af 8ebe 71af e5be
000001f0: b3a6 0cbe c744 32bf f203 92bd af8f fdbd
00000200: 354e 02be dfce 09be c0f2 e3be 28d2 babe
00000210: 75db aabd 1f13 ffbe 99a9 b2be f18a dcbe
00000220: bd28 19bf 1aaa 693e 879b bbbe 7721 db3c
00000230: 426e ddbe 1286 f9be 29d3 a4be d22a 0abf
00000240: c7ca bfbe 5a5a 0dbf 1702 3dbf 59b3 dfbe
00000250: e117 f8be f5af 3ebe e106 4dbf 2c5e 1a3e
00000260: dde8 36bf f5cb 83b7 d62a b3be c899 85be
00000270: 6f7c 953e ae97 9abe 4817 b8be 56b7 803e
00000280: 474f 2c3e c24a b73d 8d23 dbbe e095 50be
00000290: 17be 44be 04fd 84be 0d83 8cbe a49a 07bf
000002a0: e4a7 84be de9a 2ebf 167b 9c3d 00c9 05bf
000002b0: 87ac a23e 2db1 0cbe 28d0 b3be bd4c 9ebe
000002c0: 270d a0be b63f dbbc 0576 40be de21 6fbe
000002d0: a7b7 00be 2c16 dbbe ab07 2bbf a7a2 e6be
000002e0: 7389 89bd a987 533e 0790 bbbe a695 cfbe
000002f0: f5c4 9abe 5dae 32be 582e 21be 5d63 2bbf
00000300: 1a82 9b3e b682 28bf 234f 21be 06b8 19bf
00000310: baae bfbc 3e92 01bf d350 18bf 1ec1 1bbf
-0.20037179 -0.2211898 -0.2968327 -0.5075462 -0.34801108 -0.29137847 0.020700956 -0.32410267
-0.27636358 -0.49875823 -0.2561273 -0.6109833 0.20249578 -0.25389963 -0.4886172 -0.5484359
-0.45883933 -0.7730486 -0.43454722 -0.5559915 -0.48344943 0.034569114 0.052662387 -0.4420468
-0.3845174 0.08382953 -0.18393655 -0.37472287 -0.053832695 -0.37890306 -0.5813982 -0.1333696
-0.25126114 -0.65840375 -0.36314616 -0.3294057 -0.5838877 -0.021802934 -0.26272693 -0.63352203
0.33579066 -0.34916764 -0.13377582 -0.33871996 -0.6096113 -0.5139063 -0.30007377 0.43790308
-0.6699774 -0.36449715 -0.66872025 -0.48721862 -0.32834557 -0.008126201 0.11947726 -0.38876897
0.0766111 0.1858171 -0.55786777 0.025051128 -0.65791065 0.63430464 -0.39405933 -0.004327595
-0.103571326 0.19818881 0.12298187 -0.3909052 -0.3018288 0.2180708 -0.36554524 -0.3826684
-0.35695317 -0.35307962 -0.44413745 -0.64572877 -0.33902237 -0.35660943 0.15543005 -0.069818504
-0.4851605 -0.016586911 -0.33179137 0.12017498 0.028194569 -0.17901461 -0.4681194 -0.16983494
-0.6473568 -0.6908999 -0.29706648 -0.49443778 -0.5824946 0.0056203846 -0.68558735 -0.17633747
-0.48328277 -0.10169431 -0.43338647 -0.2866253 0.17288472 -0.330422 0.14360814 0.5565496
-0.27750388 -0.5677747 -0.6897615 -0.21135463 -0.588133 -0.12547241 -0.427932 -0.45456508
-0.5803081 -0.6673222 -0.5144242 -0.41878787 -0.46584153 -0.27040246 -0.45902005 -0.53502876
-0.31050777 -0.5143687 -0.2786837 -0.44860414 -0.13735466 -0.69636196 -0.07129659 -0.12380921
-0.12725146 -0.13457821 -0.4452114 -0.36488461 -0.08342639 -0.49819276 -0.34895018 -0.43074754
-0.59827787 0.22818795 -0.36642095 0.026749356 -0.43248183 -0.487351 -0.32192352 -0.5397159
-0.37459394 -0.5521599 -0.73831314 -0.4369152 -0.48455718 -0.1862181 -0.8008862 0.15074986
-0.7144907 -1.5711392e-05 -0.3499362 -0.26093888 0.29196498 -0.30193847 -0.35955262 0.25139874
0.16827117 0.08949806 -0.4280056 -0.20369673 -0.19213139 -0.25974286 -0.27443734 -0.5297034
-0.2590934 -0.6820506 0.07640664 -0.52259827 0.31772253 -0.13739462 -0.35119748 -0.30917922
-0.31260034 -0.026763778 -0.18795021 -0.23352763 -0.12570058 -0.42790353 -0.66808575 -0.4504597
-0.067156695 0.20657219 -0.36633322 -0.4054386 -0.3022839 -0.17449327 -0.15740335 -0.6694849
0.30372697 -0.6582445 -0.15752845 -0.6004642 -0.023398746 -0.5061377 -0.5949833 -0.6084155

fc2.weight f4 [150, 200]
00000000: 0dd6 b03d b1f5 aebd 7a10 ba3d ec1e 2f3d
00000010: 96c8 0abe dbab 1abe e7bf a23b 486d 33bc
00000020: 2e04 e33b e59d 18bc 90d2 d0bd 391a 063d
00000030: 59a7 92bd f88f f13d 8ae5 053d bba3 07be
00000040: 0e48 8bbd 0b5c fa3d f729 853d 4a14 0dbe
00000050: ce9b 8a3d ebda 2abe 80c8 3c3b a34d e1bd
00000060: 4d5d 92bb 65ee 083e c6de 47be 9770 f9bd
00000070: 9b54 06bd 7551 e7bb 4110 86bd cc33 e73b
00000080: 3917 58bc 8979 c93d 3c37 31be 151b b4bc
00000090: 63fd 3a3d 2c8b 283d d989 5bbd 5b9d 8fbd
000000a0: 5593 8abd 9ebd 4cbe 4db3 0a3b 554d 813d
000000b0: f3f8 b3bd 52eb a73d f97e 66bd a43f 98bd
000000c0: 7ef2 84be 5f1e 6f3d 90ec fcbd 069a 4bbe
000000d0: 85ba 46bd e23d e3bd 5896 5a3d 96fb 13bd
000000e0: 71e4 5c3c c461 40bd 9760 44be bbbd 96be
000000f0: fbf8 21be a119 ffbb 0405 ecbd ea6a ddbd
00000100: b58a 53bd 6b22 23be c5af 39bd 4407 fdbd
00000110: 513e 303d 5da8 33bd f5a0 e0bc 8c6d 2aba
00000120: 07a4 12bd 04c8 abbd b842 0fbe 8eff 09be
00000130: b1f1 943c 1ad4 f53c e43e b23c 2342 553b
00000140: 6697 64bc 26b0 eabd f0ae 2fbe 6716 afbe
00000150: 24af 55bd 7d86 34bd 5fb2 84bc 06a4 8bbd
00000160: 958e 02be 87d8 29bd 61ae 46be 72e7 ffbd
00000170: 6632 96bd 243a d238 1b3f 83bd a1f5 9d3d
00000180: 1868 e1bc 0270 bcbd 6764 fdbd 27e7 633d
00000190: bf17 6bbd cfd3 67bd c216 d0bc 27be eabc
000001a0: 0df0 56bd eb74 e8bd 78d3 59bd 7d6d 00bd
000001b0: e145 52bd 509e 373d 645e 80bd 73ea 1cbe
000001c0: 241c 34bd adf0 783d a590 d6bd 7ade 25bd
000001d0: 7bbc 0f3d c4c2 f83d 854a 9f3c 6c01 91bd
000001e0: f057 9e3c f229 99bd bf58 d6bd 1eab b1bc
000001f0: c79f cdbd 43c2 07bc b8d2 b13d fffa b73d
00000200: bb40 59bd 7b44 85bd b081 b33d 8681 223d
00000210: ca40 943b fe67 cd3d e3b1 debd 6674 adbd
00000220: ba63 dd3b 7c60 23be 9e17 00be e1d5 0cbd
00000230: 32ae 48be c439 b8bd 6dcc 9fbb 0ed3 27be
00000240: b872 8d3b 82d1 813d 4e7a 143c 01b7 7bbe
00000250: dbc7 813d 52c5 e9bd c34b 5dbd 7276 a7bd
00000260: 4e17 893c eaf4 ddbd a399 e43d 3c85 8d3d
00000270: 33db 00be e186 48be 21df 50bc 634b c6bd
00000280: ab33 cabd 975c 7bbd ff78 39be 4be5 efbd
00000290: 0526 503c 93b4 37be 374f fabd 7ff7 e5bd
000002a0: 126e 55bd 3f08 fdbc 1359 bbbc 50a6 59bc
000002b0: 4602 71be f779 983d 0bbf b4bd ef23 a73c
000002c0: ecfd 483d 3376 c1bd 812c 043e 09a0 27bd
000002d0: 672c ef3d ebef 083d 007b 393c 49bb f9bd
000002e0: 450e 11be 5e23 afbd 0f99 b1bd 2c6f 9dbc
000002f0: 269f 02be 3068 973a 6266 993d c6ac a6bb
00000300: 9416 66ba 7ccc 8e3d f7a0 453d badb 843c
00000310: f02c 29bd 1984 713d 5d27 45be 4b2b a03c
00000320: fafa 873e 622f 10bf 41af 8f3e 073b 2cbe
00000330: 8e3a 343d c217 933d 6309 1ebe 052d dd3d
00000340: 22e1 dd3d d848 003f 071f 1e3e b3ce 6dbc
00000350: 0079 34bf df54 9cbd 2d1e 873e f8eb 5d3f
00000360: b493 5b3e 0153 a23e 46c6 80bc 28e4 6fbd
00000370: 2743 a43e 8841 86bb 8209 d33d 3c3b 8abd
00000380: e6af c0be 7bb7 90be 61f7 83be 8596 2cbf
00000390: 88ee cc3e cc3c 06bd 40e7 97be b2d4 00be
000003a0: 5e59 993e 8829 9d3e e945 293f c86a 5e3d
000003b0: e514 063f 8ea9 a6be f5e5 853e c4f9 d53d
000003c0: 23c2 d63e ca8c 013e 9b82 2a3d e754 3f3e
000003d0: 83ca 46bd ed0c 1c3e f760 82bd 169c 14bf
000003e0: 9a3e 853e 88d2 b3bc 3a11 c73d 27bb 6cbd
000003f0: a1e8 7dbe 4639 ed3d 5401 f1be 88ff 20bd
0.08634577 -0.08542956 0.09085174 0.0427541 -0.1355308 -0.1510462 0.004966724 -0.010951348
0.0069279885 -0.009314989 -0.101964116 0.03273985 -0.07160825 0.11795038 0.03268961 -0.13246052
-0.06800853 0.12224587 0.06502145 -0.13777271 0.06767999 -0.16685073 0.002880603 -0.11001136
-0.0044666887 0.1337219 -0.19518575 -0.12179678 -0.03279553 -0.007059271 -0.06546069 0.007055735
-0.01318913 0.09837634 -0.17306226 -0.02198557 0.045651805 0.04114835 -0.05359826 -0.07012435
-0.067663826 -0.19994208 0.0021164 0.06313578 -0.08787718 0.08199181 -0.056273434 -0.074340135
-0.25966257 0.058378574 -0.12349808 -0.19882974 -0.048517723 -0.110957876 0.053366035 -0.036128603
0.013482199 -0.046968237 -0.19177471 -0.29441628 -0.15817635 -0.0077850376 -0.11524394 -0.10811408
-0.051645953 -0.15931098 -0.045333643 -0.123549014 0.04302818 -0.043861736 -0.0274205 -0.0006501309
-0.03580096 -0.08387759 -0.13990295 -0.13476393 0.018181654 0.030008364 0.021758504 0.0032540641
-0.013952112 -0.11459379 -0.17156577 -0.3419678 -0.05216898 -0.04407357 -0.016198335 -0.06818394
-0.12749703 -0.041466262 -0.19402458 -0.124953166 -0.073338315 0.0001002441 -0.06408521 0.077128656
-0.027515456 -0.09201051 -0.12372666 0.055640366 -0.057395693 -0.05659848 -0.025401477 -0.028655125
-0.052475024 -0.11350425 -0.053180188 -0.031354416 -0.051336173 0.044828713 -0.062680036 -0.1532381
-0.04397215 0.0607764 -0.104768075 -0.040495373 0.03509186 0.121465236 0.019444713 -0.07080349
0.019329041 -0.074787036 -0.10466146 -0.02168804 -0.10040241 -0.008286062 0.086827695 0.089834206
-0.053040247 -0.06507202 0.0876497 0.039674304 0.004524325 0.100296006 -0.10873773 -0.08469467
0.006756273 -0.15954775 -0.12509009 -0.03438366 -0.195977 -0.08995393 -0.0048766644 -0.16389105
0.004316654 0.063387886 0.009062363 -0.24581529 0.063369475 -0.11414589 -0.05402733 -0.081768885
0.016734745 -0.10837729 0.111621164 0.06910178 -0.12583618 -0.19582702 -0.012748511 -0.096823476
-0.09873136 -0.061367597 -0.18112563 -0.11713656 0.012704377 -0.17939977 -0.1222214 -0.11228847
-0.052106924 -0.030887721 -0.022869622 -0.013284281 -0.23536023 0.07445138 -0.08825501 0.020402877
0.049070284 -0.09446373 0.12907602 -0.040924106 0.11678391 0.03343193 0.011320829 -0.12193925
-0.141656 -0.08551668 -0.08671772 -0.01921805 -0.12756023 0.0011551436 0.07490231 -0.005086514
-0.0008777168 0.06972596 0.04824921 0.016218055 -0.04130262 0.05896387 -0.19253297 0.019551894
0.26558667 -0.563223 0.28063396 -0.16819392 0.044001155 0.07182266 -0.15433268 0.107996024
0.10833956 0.5011115 0.15441523 -0.014514613 -0.7049713 -0.076333754 0.2639021 0.86688185
0.21443063 0.31703952 -0.015719544 -0.058567196 0.32082483 -0.0040971674 0.10304548 -0.06749579
-0.376342 -0.28264984 -0.25774673 -0.67417175 0.40025735 -0.032772824 -0.29668617 -0.12581137
0.29950994 0.30695748 0.661223 0.054301053 0.5237563 -0.32551235 0.26152006 0.1044803
0.4194499 0.12651363 0.04162846 0.18684731 -0.048532974 0.15239306 -0.06366151 -0.5805067
0.26024324 -0.021950975 0.097200826 -0.05779567 -0.24795772 0.1158319 -0.47071326 -0.039306194

fc2.bias f4 [150]
00000000: 3fe0 57be eef1 4fbd 9c22 26be d941 26bf
00000010: e365 c0bd a5fc 65bc e842 8abd 1aaa 1dbe
00000020: e024 1ebe 138d 53bd 14e5 3ebe 6079 fbbe
00000030: 7812 373e 51a1 f4be 71e8 1bbe eca8 cbbd
00000040: cc79 00bd 593b 40bf 3a20 92be 455c fbbe
00000050: 4114 99bd 2431 a2be 7830 89be a57d 67bb
00000060: 5f58 53be 6340 ac3b cb21 50be 356c 5bbe
00000070: e3af 30be 5ea6 263e 81be 84be 16f1 a0bd
00000080: d62e 13be cf4d 1abe b4ba 12be 8d4b 183d
00000090: 8a5f 19be 4591 f3be 98ee f3bd cb6a c0be
000000a0: dbc3 acbe 13f8 35be 7850 19be ac31 e13d
000000b0: 62a8 853e 86e3 4bbf 7778 84bd 214c 56be
000000c0: b49f 7ebe 31f1 bcbe c8d5 b2bd 46e0 c5be
000000d0: 2325 bebe 4600 583e a23b 04be ba37 56be
000000e0: ca7f c1be 4d6b 31be de54 c7be 6171 cbbd
000000f0: 4efc 013e f84b 7fbe e18d a1be db44 01be
00000100: 0196 0abf 624b 1bbf d901 a9bd f9a3 00bd
00000110: 0d9c 003e 0790 7abd 69bf d3be 7340 ccbd
00000120: 0972 a6be 6ff3 d03d f07f 5dbe fa83 c0be
00000130: 7f58 f5be 73d1 bbbe a6c2 f4bd 7825 ebbd
00000140: 1982 0ebf f8b8 5cbe 514b 6cbe 4fa2 0cbf
00000150: bdf7 ddbe 7501 8fbe 12bb b3bd b406 76be
00000160: 439c 36be bce9 5cbe 34c5 c1be d1d0 31be
00000170: ef2e 11be dc9b a8be 1948 e1bd 65d5 f1be
00000180: 9388 a6bd 6447 2dbe 8c30 ee3b c710 3dbe
00000190: 7fd3 3abe 744e 85bc b435 5bbe 0a27 0fbe
000001a0: 8273 c3be 48a6 13be 1107 08bc cf54 68be
000001b0: d35a 943b f9a3 dcbe 9368 4abd 6749 8cbe
000001c0: c4c9 9ebe 8ec2 dbbe fa95 0bbe e55e edbd
000001d0: 3974 c3bd 51e9 9dbc 9e23 f93d ce0c 0ebf
000001e0: b1c9 6ebd 3016 aabd f3c0 acbe 5cf2 a8bd
000001f0: 18b4 83be 1c14 18bf 57a5 1cbe 4c27 a43c
00000200: d593 b8be 4766 a0be 69f7 febd aacd b2bc
00000210: 4ef5 e13c 80b4 bbbe ee05 5cbe aca8 6bbe
00000220: e8a4 0abe 90e1 843c 4e65 04be a054 be3c
00000230: 6c5f 58be 4909 aebe 20a1 0ebc c123 18be
00000240: 7500 a1bd 3564 89be 23cf c7be 0eb6 66be
00000250: bd91 0abd d40d 1cbe
-0.21081637 -0.05076783 -0.1622414 -0.64944226 -0.09394433 -0.014037286 -0.067510426 -0.1539692
-0.15443754 -0.05164821 -0.18642074 -0.4911604 0.17878139 -0.47779325 -0.15225388 -0.09944329
-0.031366155 -0.7509056 -0.28540212 -0.49093834 -0.07474566 -0.31678116 -0.2679479 -0.0035322693
-0.2063918 0.005256699 -0.20325391 -0.21427996 -0.17254595 0.16274402 -0.25926593 -0.078584835
-0.14373335 -0.15068744 -0.14329034 0.037181426 -0.14977852 -0.4757177 -0.119107425 -0.37581477
-0.33743176 -0.17770414 -0.14972103 0.10995802 0.26105028 -0.7964405 -0.06468289 -0.20927478
-0.2486561 -0.36902764 -0.08732182 -0.3864767 -0.37137708 0.21093854 -0.12913373 -0.20919695
-0.37792808 -0.17326088 -0.38931936 -0.09933735 0.12693903 -0.24931324 -0.31553558 -0.12623923
-0.5413514 -0.606619 -0.082523055 -0.031406377 0.12559529 -0.06117251 -0.41356972 -0.0997323
-0.32508877 0.10202681 -0.21630836 -0.3760069 -0.4791908 -0.36683235 -0.11951189 -0.11481756
-0.55667263 -0.21554935 -0.23075606 -0.54935163 -0.43353072 -0.279308 -0.08775915 -0.24025995
-0.17833047 -0.21573538 -0.37845767 -0.17364813 -0.1417806 -0.3293141 -0.1100008 -0.4723312
-0.08131518 -0.16921765 0.007268971 -0.18463431 -0.18244742 -0.01627276 -0.21407205 -0.13979736
-0.38174063 -0.144189 -0.008302466 -0.22688602 0.0045274287 -0.4309385 -0.049416136 -0.27399752
-0.3101331 -0.4292187 -0.1363143 -0.11590365 -0.09543652 -0.019276293 0.121649966 -0.5548829
-0.058297817 -0.08305013 -0.3374096 -0.082493514 -0.25723338 -0.59405684 -0.15297447 0.02003827
-0.36050287 -0.3132803 -0.124495335 -0.021826584 0.02758279 -0.36661148 -0.21486637 -0.23013562
-0.13539469 0.016220838 -0.1292927 0.023233712 -0.2113015 -0.3399146 -0.008705407 -0.14857389
-0.07861415 -0.26834264 -0.3902522 -0.22530386 -0.033830393 -0.1523965

fc3.weight f4 [2, 150]
00000000: f13f 513d 23bc a9bf 777f 68bd 6248 85be
00000010: bbbe 08be e4de de3c f7b6 fdbb 37c4 cfbc
00000020: 534e 03bd c332 12be cda1 c23e 6f4d 443d
00000030: 2f71 65bd e19d 7abd 934e 81bc 2185 80bb
00000040: 2725 e43d 27c9 c7be 3d55 59bf b2c4 1ebf
00000050: e064 39be 25c1 6bbd 671f b9be 285f 76bd
00000060: 680a a5bc dd64 32bc 6386 3ebf 608b 0f3e
00000070: e318 fabe e1cb 023e 5868 a0be f505 98bc
00000080: 2629 c53d b4c3 f33c 1f6d 6dbc 3de8 b83b
00000090: 705a 9cbb 43d5 093d ea7b b93c b495 153d
000000a0: b3b0 5f3e 5342 d43c 922a ddba 6248 b23d
000000b0: d28c 99be 05cb 8e3f 31fc 553c 5bad a33e
000000c0: ca19 4cbd c0f8 1abd bdda fd3e 3413 b8be
000000d0: b427 15bf cf92 59bc fa1e 51bc 7246 d33d
000000e0: 8c88 edbd bf18 bd3b 7114 ec3e a4e6 6d3c
000000f0: 0971 97bf 8719 15bf 677d bcbd c449 acbc
00000100: 9734 d7be 8d25 803c 4d56 393c a5ae c4bc
00000110: 5448 abbf bd82 8fbf 33b1 72bd b711 9fbc
00000120: 9c7c 093c eabc 653e 7f87 c7bd 506b 01be
00000130: 9f5b 813d 56f3 bcbd 8136 35bd 0c92 2dbd
00000140: 330d 7dbe 131c 813c 6357 99bc 76eb 133e
00000150: 255c 223d 1130 a4bf 1edd 033d 7f49 4f3d
00000160: d7e2 e9bb 20a9 03ba 522d ccbd fbed 7d3e
00000170: fc7e d43e a592 283c 531a f93c c8f3 853e
00000180: 3684 72bf 4717 103f 67f8 953e 5460 3d3e
00000190: ced2 233d 926a 04bf d4a6 2fbf 835c e1bb
000001a0: ec0b 0a3f f139 c4bb 8609 adbe 17a3 01bc
000001b0: 3ee0 63bd f3e0 6ebe efe7 c6bc 7938 653d
000001c0: 0ddf 943e ed84 3fbd 11c4 5ebf bb8e 03bf
000001d0: 6130 ac3d 8733 b03c aab8 d7be 1ca4 35bf
000001e0: 1c66 77bc 0dee 2bbf 8474 3a3e 380c f2bc
000001f0: d992 afbe 2c51 bcbe aa3d 993e 006f 1c3b
00000200: d708 aabe fe9a 19bd ab02 02bd 0ee5 bd3c
00000210: cd12 29bd 152d 2b3e 4f1c 21bf c79b 0abd
00000220: 1007 02bd 4dbc 3d3b ac69 50bc fe17 af3c
00000230: 57b4 06bd 2f56 92be 55cc bdbd 9b04 1abe
00000240: 4ea9 35bb ec21 bebf 7da3 943d e34d d93a
00000250: c375 13bc c661 f3be ff49 11bc 6bd7 3dbe
00000260: 2819 11be ec75 b7be 4baa ce3e d742 18bb
00000270: ac2d 23bd f482 78bd 3263 383d a813 3bbe
00000280: 8166 abbe 24ad d6be b00b bc3f 0347 53bf
00000290: 7302 21bc 0e77 32bd 4e71 bb3e 62c8 91be
000002a0: 99cb b0be eb1d 0d3f e35e 57bd 3454 3c3f
000002b0: e66a 9c3e 7b78 40bf 8781 3b3d 3d45 13bd
000002c0: a13e a13d 8a40 4abf 2e26 de3e 075c 65bf
000002d0: afae 54bf f4dc c23c d4d9 0b3f fd17 083e
000002e0: b727 8cbc 5ca0 583f c19b 1ebd d0e6 ee3e
000002f0: aa50 70bb 9e16 e63e cc66 b73f b7a8 973f
00000300: 03e1 da3e e10b 2bbf 4cf9 d1be 2ddb 11bf
00000310: 1904 bebd 7d4b 6abe e923 763c 9dad f23e
00000320: 5ee1 9fbe 2a7d 3f3f 19da 06bf a169 a4bf
00000330: 51f8 6e3e df8d 03bf 8eb5 633f 99e2 03be
00000340: f7e5 fbbe 4fc6 b23a 67a8 9c3f cecc 40be
00000350: ca2f 99be eb0c a63c 4b54 0f3d 960a 61be
00000360: 7b63 b13d 5ed7 aa3c 9a27 b23e 0fd9 963e
00000370: 245d aebe 87b2 66bf 2b9f 123f 9900 1d3e
00000380: 855c f93a 6abc 8bbf d760 543f 0cb4 09be
00000390: 9e72 953d fa31 a93f b521 ad3e 055e 2c3e
000003a0: 828e 8a3e e21b f0be b406 3bbf 0634 88be
000003b0: 81fb 73bc 4f42 5cbd 6277 85bc 3b21 d3bc
000003c0: 8b27 293e 34f9 c03e 543e 4abf 98ac 1c3f
000003d0: ce47 45bc ad62 803e 85d8 34be d549 933f
000003e0: 112e d53e e46c 24bf 13d4 f8bd b832 6c3c
000003f0: 1ded 283d cd33 cf3d 7044 01bf 6677 b7bb
0.05108637 -1.326054 -0.056762185 -0.26031786 -0.13354008 0.027205892 -0.0077427584 -0.025362117
-0.032057118 -0.14277177 0.3801407 0.04792541 -0.056016143 -0.06118572 -0.015784537 -0.00392212
0.11139899 -0.39020655 -0.8489569 -0.62018883 -0.18104887 -0.057557244 -0.3615677 -0.06014934
-0.020146564 -0.0108883055 -0.7442381 0.14018011 -0.48847112 0.12773086 -0.31329608 -0.018557528
0.09626989 0.029756404 -0.0144913485 0.0056429193 -0.004771523 0.033650648 0.022642095 0.03651972
0.21844749 0.025910532 -0.0016873649 0.08705212 -0.2999025 1.1155707 0.013060615 0.31968197
-0.049829282 -0.037834883 0.49580947 -0.3595215 -0.5826371 -0.013279631 -0.012763733 0.10316171
-0.1159831 0.005770772 0.46109346 0.014520321 -1.183137 -0.58242077 -0.09203606 -0.021031268
-0.4203231 0.015642906 0.01131208 -0.024009058 -1.3381448 -1.1211773 -0.05925102 -0.019417627
0.008391526 0.22435346 -0.09742641 -0.12638593 0.063163035 -0.092261 -0.044241432 -0.04237561
-0.24712066 0.015760457 -0.018718427 0.1444529 0.039638657 -1.2827169 0.032193296 0.0506072
-0.007137637 -0.0005022455 -0.09969582 0.24797814 0.4150313 0.010288869 0.03040806 0.26162553
-0.9473299 0.5628552 0.29291078 0.18493778 0.03999596 -0.51725113 -0.68613935 -0.0068774833
0.5392444 -0.0059883525 -0.33796328 -0.007912419 -0.055633776 -0.23327999 -0.024280516 0.05596206
0.29076424 -0.046757627 -0.87017924 -0.51389664 0.08407665 0.021508945 -0.42133075 -0.70953536
-0.015100028 -0.6716011 0.1820851 -0.029546842 -0.34291723 -0.3678068 0.29929858 0.0023869872
-0.3320987 -0.037501328 -0.031740826 0.02318051 -0.041277695 0.16716416 -0.6293382 -0.033839967
-0.031745017 0.0028951347 -0.012720507 0.021373745 -0.03288683 -0.28581378 -0.09267489 -0.1504082
-0.0027719322 -1.4854102 0.072577454 0.0016578998 -0.009000245 -0.47535533 -0.00886774 -0.18539207
-0.14169753 -0.35832155 0.40364298 -0.00232332 -0.039838478 -0.06067176 0.045016475 -0.18269217
-0.33476642 -0.4192897 1.4691067 -0.8253023 -0.009827244 -0.04357057 0.36609882 -0.28473192
-0.34530333 0.55123776 -0.052580725 0.73565984 0.30550307 -0.7518384 0.045777824 -0.035954703
0.07873274 -0.7900473 0.43388504 -0.8959355 -0.83079046 0.023787 0.54629254 0.13290401
-0.017108781 0.8461969 -0.038722757 0.4666047 -0.0036669173 0.4493913 1.4328246 1.1848363
0.42749795 -0.66815 -0.4101051 -0.5697506 -0.09278125 -0.22880359 0.01502321 0.4739808
-0.3122663 0.7480036 -0.5267654 -1.2844735 0.23336913 -0.51388353 0.88948905 -0.12879409
-0.49198887 0.0013639423 1.2238892 -0.18828127 -0.29919273 0.020269832 0.034992497 -0.21976694
0.086615525 0.020854648 0.3479584 0.29462478 -0.34055436 -0.9011616 0.5727412 0.15332259
0.0019024765 -1.0916874 0.82960266 -0.13447589 0.07297252 1.3218377 0.3381478 0.1683274
0.2706185 -0.46896273 -0.73057103 -0.2660219 -0.014891506 -0.053774174 -0.016292278 -0.025772681
0.1651899 0.37690127 -0.79001355 0.6120086 -0.012041045 0.25075284 -0.1766072 1.1506907
0.41636708 -0.64228654 -0.12149825 0.014416389 0.041241754 0.10117302 -0.5049505 -0.00559895

fc3.bias f4 [2]
00000000: f168 823e 69f3 02bf
0.2547069 -0.51152664
