checkpoint_critic_1.pth (torch_old, 144261 bytes, 5 tensors)

fcs1.weight f4 [200, 25]
000000 7b d0 44 be 33 89 31 bf 13 3c 88 bc 48 95 23 3e
       -0.19220154 -0.69349974 -0.016630208 0.15974915
000010 3a 55 1c bf 86 21 43 bf 1e 2a 0a bc f7 f1 74 3e
       -0.61067545 -0.7622303 -0.008432893 0.23920427
000020 95 9a 36 bd 97 b0 6b bc cf ea ee 3b 66 7d 94 3e
       -0.044581015 -0.014385364 0.007291175 0.2900192
000030 7b ef 56 be 1d aa 18 bf 03 c1 21 bd e4 91 2e 3e
       -0.20989792 -0.5963457 -0.03949071 0.1704784
000040 11 d8 96 3e 8e 79 70 3d 72 cb ce 3c dc 2c ee be
       0.2946172 0.058709674 0.025243495 -0.465186
000050 7d e0 51 3f a4 bb 86 3f 90 42 a7 3c a8 8f e6 be
       0.81983167 1.0526013 0.020417482 -0.45031476
000060 a4 6d 19 3e f9 89 36 3f 36 30 32 be 46 10 46 be
       0.14983231 0.7130428 -0.17401204 -0.19342145
000070 7e 35 bd 3e 47 8b d5 3d 03 97 16 bf 91 bf a8 bd
       0.36954874 0.10426956 -0.58824176 -0.082396634
000080 56 23 d8 3e 5f 19 06 3f 61 f0 10 ba 0e 4c 47 be
       0.4221446 0.52382463 -0.00055289833 -0.19462606
000090 04 56 83 bd 25 b3 8a 3e fb 0e 9d bf 4a 90 ac bd
       -0.064128906 0.270898 -1.2270197 -0.084259585
0000a0 80 f8 22 bd fe 25 e3 3e a3 8b 8d be 06 18 42 bd
       -0.03978777 0.44364923 -0.27645597 -0.04738619
0000b0 a5 87 c9 be 56 1f e6 3d f6 63 b4 bf 33 ca 98 bd
       -0.393613 0.112364456 -1.4093006 -0.074604414
0000c0 23 08 f8 be 6d 1a 92 be 0b fc d9 3e 25 fb e4 be
       -0.48443708 -0.28535786 0.42575106 -0.44722858
0000d0 a0 22 1d be 4d 1d b8 be 7d 97 e7 bd 16 9c 5c be
       -0.1534524 -0.35959855 -0.11308191 -0.21543917
0000e0 c7 b1 4b be 36 77 99 be 3d 07 0a 3f 68 7e 6c bd
       -0.19892035 -0.29973763 0.53917295 -0.057737738
0000f0 6e 82 f5 bd b6 b5 de 3e 78 08 52 bd 38 a6 80 be
       -0.11987768 0.4349801 -0.051277608 -0.25126815
000100 9d 5d 0e bd 87 8c ce 3e 15 ba 01 3f 48 63 2d 3e
       -0.034757245 0.4034159 0.50674564 0.16932404
000110 8a c4 c7 bd 0e 47 1a 3e 59 c2 43 be 40 05 cd be
       -0.09754284 0.15066168 -0.19117106 -0.40043068
000120 a8 76 a1 bd ac 05 05 3e b6 94 d0 bf 3a 42 11 3f
       -0.0788396 0.12990445 -1.6295383 0.5674168
000130 fb 5f 21 3e 40 c5 f0 3b d3 0b aa bd 89 55 07 3f
       0.1575927 0.007347733 -0.083030365 0.5286489
000140 7f 23 6e bf 95 bd 9f 3c a1 f4 4d bd 47 0a e0 3e
       -0.9302291 0.01949958 -0.050282124 0.4375784
000150 b2 fd 67 be 0d 37 c1 ba 05 ae 5a bd 8a 40 ea 3e
       -0.22655371 -0.0014741138 -0.053388614 0.45752364
000160 6b ef 5d be 54 4f b7 3c ad 30 06 be d6 b1 e5 3e
       -0.21673362 0.022376694 -0.13104506 0.4486224
000170 e5 70 07 bd cd 2a 03 3e ed 88 d2 bd fe ba 7d 3e
       -0.03306665 0.12809296 -0.10280023 0.24778363
000180 24 bb e7 3e 98 c7 53 3e 6d d9 b6 bd d5 79 8f 3e
       0.45259964 0.20681608 -0.089281894 0.28022638
000190 56 d1 3c 3f 54 ea f4 3e f0 9b 01 3d 58 18 2a bf
       0.7375692 0.47835028 0.031642854 -0.66443396
0001a0 f7 a2 1e 3e 7f 6e 12 be ae 1c 0b 3e ec 12 0e bf
       0.15491854 -0.14299963 0.13585159 -0.5549762
0001b0 51 d9 4f 3f 9f 3e ee 3e 97 49 fe bd 7b bf ac bd
       0.81190974 0.4653215 -0.1241638 -0.084349595
0001c0 b2 78 2b 3e 87 e3 a3 be 77 f3 a4 bd e9 5c 3d be
       0.1674526 -0.32009527 -0.0805425 -0.18492474
0001d0 e2 a4 14 3f 3d a3 a6 3e 3d bf 31 be 3f f7 b1 be
       0.5806409 0.32546416 -0.17358108 -0.34758946
0001e0 57 f8 3b 3e 6c 4d ee 3d bf 20 17 be eb 5d 99 be
       0.18356453 0.11635861 -0.14758585 -0.29954466
0001f0 17 1f 62 bc b4 f3 f6 3d b2 01 62 3f 59 ca fa bd
       -0.013801358 0.120582014 0.88283837 -0.12245626
000200 49 06 9c 3c 0c 1c c7 bd d9 4a c0 3e 8b 5b 95 bd
       0.019045966 -0.097221464 0.37557104 -0.07292851
000210 bc 86 a0 bd 2a 98 80 3e d2 4c 60 3f 74 3b 54 bb
       -0.078381985 0.25116092 0.8761722 -0.003238407
000220 71 2f 3d be 14 a3 16 3e bb b0 05 3e e3 96 d3 bd
       -0.18475129 0.14710647 0.13055699 -0.10331514
000230 5b 00 15 be ab f1 ca 3e a4 23 9b 3f 84 2f cc 3d
       -0.14550917 0.39637503 1.2120252 0.099700004
000240 6a 18 52 3e 53 d5 b6 3e 5d 6a 6a 3d ad 97 c9 3d
       0.20517126 0.35709628 0.057230342 0.09843383
000250 49 0f 73 3e 5a 46 77 be 8c cb 0c 3e 3c 69 fa 3c
       0.237363 -0.2414793 0.13749522 0.030567758
000260 8b 30 52 bd a2 60 f4 3c b2 2b 4d 3d df d6 3e bb
       -0.051315825 0.029831234 0.0500905 -0.0029119772
000270 e4 46 93 3c 95 06 6c bc a9 13 09 3e b3 25 5a 3c
       0.01797814 -0.014405866 0.13386406 0.013314652
000280 4d 3d 23 3c 7f ff 90 3a fc 9b 9d bc d8 c6 90 bd
       0.009963346 0.0011062472 -0.019239418 -0.070691764
000290 61 db 05 bd ce 71 b2 3c 4c 62 a4 3d b2 27 c2 3d
       -0.03267992 0.021782782 0.08026561 0.094802275
0002a0 0d 92 ce bc 1f 0d d5 bd 78 b8 d5 bc d6 b7 d1 bc
       -0.025216127 -0.10402893 -0.026088938 -0.025600355
0002b0 fe ac 07 3c a3 f5 6d bd c1 fc f5 bc 34 00 b6 3e
       0.008280991 -0.058095586 -0.030027749 0.3554703
0002c0 be 03 27 3c 3c 92 45 bd 86 03 b8 3c 8a e2 99 3d
       0.010193763 -0.048235163 0.022462618 0.07513912
0002d0 6a 49 e9 bd 88 9d 37 bb f5 7d 99 3d 50 56 a3 3e
       -0.11390956 -0.002801748 0.074947275 0.3190179
0002e0 b9 a9 b0 3d ce 5e cf bc 00 3d d5 bd 77 44 28 3c
       0.08626122 -0.025313761 -0.104120255 0.01027023
0002f0 c3 22 8b be 9e 31 e5 3a 67 3d a9 bc e3 28 ae 3e
       -0.2717496 0.00174861 -0.020659162 0.3401557
000300 ed 9a 06 3d aa dc 43 bc 55 7e 8e bd 36 0c a0 bc
       0.032862592 -0.011954466 -0.0695769 -0.019537073
000310 2e 37 27 be 7f 8a ef bc 63 a2 ed bd 1a 0a 92 3e
       -0.16329643 -0.029240845 -0.116032384 0.28523332
000320 73 0d a1 3e d4 4a d8 3d d4 38 66 bd f0 17 c4 bd
       0.31455573 0.10561147 -0.05620654 -0.09574878
000330 c3 ea 4b 3d 20 d6 72 be 2f be 66 bd 9b 21 09 bd
       0.049784433 -0.23714495 -0.056333717 -0.033479314
000340 c8 cb d5 3e 3a d7 00 3e f7 2c 12 bd 9d 3c c8 bd
       0.41757035 0.12582102 -0.035687413 -0.09777186
000350 5c b3 e2 bc 27 19 5f be 8a 4e 13 bc 57 aa 25 bd
       -0.027673416 -0.21786939 -0.008990893 -0.04044565
000360 35 64 f8 3e fa 0e 71 3d 88 f3 9d bc 38 72 6c 3c
       0.48513952 0.058852173 -0.019281164 0.014431529
000370 0f be 9f 3d b1 cb c3 bd e3 de 25 bc ba 57 ea 3d
       0.07799923 -0.095603354 -0.010123941 0.11442514
000380 75 c2 b4 3e c0 b6 cd 3e 18 bb e5 3e 2b 6a e6 bd
       0.3530461 0.4017849 0.44869304 -0.11250719
000390 41 77 54 be 4d d9 96 3e 4f 92 c4 3e 5a 62 a6 bd
       -0.20748617 0.29462662 0.38392875 -0.08124228
0003a0 de 40 09 be 8f 4f 01 3f 81 55 a0 3e f9 0b 4d 3d
       -0.13403651 0.5051202 0.31315234 0.050060246
0003b0 ee 27 ae be 78 9f 60 3e 27 da 97 3d fd 18 a1 3d
       -0.3401484 0.21935833 0.07414656 0.07866094
0003c0 e9 58 be be cb d3 c5 3e ff 37 b4 3e ec fc 2c 3d
       -0.37177208 0.38638148 0.35198972 0.042233393
0003d0 e3 af 87 be 7b c4 a7 bc f7 97 1a bf f5 57 9a bc
       -0.26501378 -0.020479431 -0.6038813 -0.01884077
0003e0 87 d1 3a be ff 37 86 bf e7 b9 d9 3e 10 27 28 bf
       -0.18243991 -1.0485839 0.42524645 -0.65684605
0003f0 d3 6d b4 3d cd b7 b2 3d 5f a4 ea bb e1 6e 28 3f
       0.0881001 0.087264635 -0.007160708 0.6579419

fcs1.bias f4 [200]
000000 84 a4 7a bf 2d 11 c6 be de 38 54 bf b6 10 8d bd
       -0.9790728 -0.3868498 -0.8289927 -0.06887953
000010 bb a0 ab be d7 df f3 be 66 8f 67 be 67 0a 30 be
       -0.33521065 -0.47631714 -0.22613296 -0.17191468
000020 d5 a6 79 be be 94 9f be dd 9c 44 be 22 64 ab be
       -0.24380048 -0.3116817 -0.19200464 -0.33474833
000030 e7 8d 85 be 44 72 20 3c d1 c2 cd be a5 ac a8 bd
       -0.26084825 0.009792868 -0.40187696 -0.08236054
000040 69 08 51 be a5 d0 99 be cc 5b 07 bf 35 76 68 be
       -0.20413364 -0.30041996 -0.52874446 -0.22701342
000050 19 a5 a5 be 80 43 45 bf 14 86 bd bd 35 02 ff be
       -0.32352522 -0.7705612 -0.09254089 -0.4980637
000060 de a4 30 be 73 91 95 bd 58 6f 94 be d9 ff 21 bc
       -0.17250392 -0.07303133 -0.289912 -0.009887659
000070 6d 77 ef 3d d3 4f 65 bf 19 57 ae be 8b c7 51 3e
       0.116927005 -0.8957493 -0.34050825 0.20486276
000080 7f 51 e4 be 8c 6b 42 bf a9 17 15 bf 1c 52 6f be
       -0.44593427 -0.75945354 -0.5823923 -0.23371166
000090 4b 5c 0c bf 06 a1 0c be a8 bf 78 be 0f 13 69 bf
       -0.5482833 -0.137333 -0.24291861 -0.91044706
0000a0 6d 75 95 be d8 4d 94 be d9 c1 05 3d 98 4e 02 be
       -0.2919115 -0.2896564 0.03265557 -0.12725294
0000b0 9e e2 8b be 9e 4a 26 bf fa 19 a6 be 04 9d 77 be
       -0.27321333 -0.64957607 -0.32441694 -0.2418099
0000c0 f3 b0 21 bf a8 95 4f bf 23 15 8b be ba 8f 3f bf
       -0.6316063 -0.8108773 -0.27164564 -0.74828684
0000d0 f6 3a c9 3c 38 63 5e 3d 45 a0 65 bf 91 d5 51 bf
       0.024564248 0.05429384 -0.89697677 -0.819665
0000e0 8b 56 07 3d bc 4d c0 3e e1 10 ce be 44 e5 f3 3c
       0.03304152 0.37559307 -0.40247253 0.029772408
0000f0 cb 61 4a bf 46 bf ab be 67 99 3b be 6b 37 ff 3b
       -0.7905547 -0.33544368 -0.18320237 0.0077885888
000100 e1 1c cf be 25 5f 06 be 41 39 24 bf e6 1c 54 bf
       -0.4045172 -0.13122232 -0.6414986 -0.82856596
000110 8f 9b ab be 66 3b b9 bd 1c 83 ed be d0 20 69 bf
       -0.3351712 -0.090445325 -0.4638909 -0.9106569
000120 4a 1e c7 bd 44 a3 94 be e3 35 73 be 8b 46 4e 3e
       -0.09722574 -0.29030812 -0.23751025 0.20144098
000130 80 65 ff be 20 e1 78 bf c9 85 85 bf 28 ef fa bd
       -0.49882126 -0.97218513 -1.0431453 -0.12252647
000140 39 3f 4e bf 8c f0 01 bd 89 e8 9d bd ba d9 d1 be
       -0.8056522 -0.031723544 -0.07710368 -0.40986425
000150 6d ba 32 3d b4 b5 7c bd 03 fd c5 be db 33 c8 be
       0.04363482 -0.061696723 -0.38669595 -0.39102063
000160 7a d2 88 be bf 42 2f bf 6d dc 79 be 2a ad 8a bf
       -0.2672308 -0.6846122 -0.24400492 -1.0834095
000170 92 6e 04 bf c0 80 19 be 16 a9 6f be 89 f3 2e bf
       -0.51731217 -0.1499052 -0.23404345 -0.68340355
000180 53 4f 47 be 43 86 04 be 27 9c 43 be 3f 3e 61 be
       -0.19463854 -0.12941842 -0.19102536 -0.21996401
000190 13 0d 42 3e b4 44 59 be e7 8e a2 be 6b 1a 6b bd
       0.189503 -0.21217614 -0.3174965 -0.05739824
0001a0 96 aa 85 3e c8 6c 43 be ad a7 6e be 7f e3 99 be
       0.2610671 -0.19084466 -0.2330615 -0.30056378
0001b0 74 cf e7 be 8c de 4a bf 5d 24 2e be 7f ac e9 be
       -0.45275462 -0.7924583 -0.17006059 -0.45639417
0001c0 dd 9c 8b be 8c 6d 7a be 26 61 f9 bd 8a 84 18 bf
       -0.27268115 -0.24455851 -0.12176733 -0.5957724
0001d0 cb fe 82 be 2f 2e d2 be 77 f0 ee 3d 33 e2 07 bf
       -0.25585017 -0.4105086 0.11666959 -0.5307953
0001e0 74 d4 59 be 5b d5 fa bd 03 51 10 bf 18 32 2e bf
       -0.2127245 -0.122477256 -0.56373614 -0.68045187
0001f0 74 8b 4e bf 09 43 a2 be dd 85 2e be 3f f1 8e be
       -0.8068154 -0.3169177 -0.17043252 -0.2791843
000200 fa 40 7f be 65 63 1d bf 0a 57 46 bd fe 2f a3 be
       -0.2492713 -0.6147979 -0.04842285 -0.31872553
000210 52 4b 19 bf c8 65 63 3e 27 4d 35 bd 4c 2d b7 3d
       -0.59880555 0.22206795 -0.04426303 0.089441866
000220 13 ff 65 be 22 6e be 3e 0e a4 2e be fd 4b 0b be
       -0.22460584 0.371934 -0.1705477 -0.13603206
000230 e5 a3 0d be 25 6b 00 bf 34 69 e7 be f2 16 3a bf
       -0.13832052 -0.5016349 -0.4519745 -0.7269126
000240 7d 97 05 bf 27 12 65 bf 38 2c 9e be 78 00 0e bf
       -0.5218428 -0.89480823 -0.3089311 -0.55469465
000250 98 68 26 bf 90 f9 8c bd bf a8 a7 be 76 5f c3 be
       -0.6500335 -0.06883538 -0.3274593 -0.38158768
000260 a2 0d cf 3e ad 6f fc bd e0 b2 3a bf 89 67 51 be
       0.4044009 -0.12325988 -0.7292919 -0.20449652
000270 ff bf 83 be 68 23 1b bf 69 1b 06 bf 96 45 d9 be
       -0.2573242 -0.606009 -0.52385575 -0.42435902
000280 5c 1f 13 bf 28 81 40 bf 97 bc d8 be f6 e8 98 be
       -0.57469726 -0.75197077 -0.42331383 -0.29865235
000290 6d 58 40 bf 85 56 df 3d 9f 36 8d be ed 31 24 bf
       -0.7513493 0.10905174 -0.27580735 -0.6413868
0002a0 70 bf d2 bd 37 c7 16 be 96 d7 bc bd 84 a6 d2 be
       -0.1029042 -0.14724432 -0.09220807 -0.41142666
0002b0 1a ee f1 be d7 de 04 3d 3b ca 56 bf d4 05 20 bd
       -0.4725197 0.03243908 -0.8390233 -0.039068058
0002c0 43 0d b4 3e 8b bc f6 be 62 3a 23 be 79 19 9c be
       0.35166368 -0.48190722 -0.1594024 -0.30488184
0002d0 a3 3d 6c 3e 2b 17 5d be dd a1 f3 3d 38 5a 80 bf
       0.23070388 -0.21590869 0.11896107 -1.0027533
0002e0 3e 1f 14 bf 99 b5 16 bf ab f2 2d bf a8 73 aa be
       -0.5786017 -0.58870846 -0.67948407 -0.33291364
0002f0 ab f7 21 bf fc d1 db bd 3f 26 92 be 9a cf fd be
       -0.63268536 -0.10733411 -0.28544804 -0.4957245
000300 9d 91 70 bf 27 01 18 bf bc f1 87 be 1c bb 87 be
       -0.9397219 -0.5937676 -0.26551616 -0.2650994
000310 a0 15 32 be fe c2 69 bf 2d 33 3e 3c 12 94 9c be
       -0.17391062 -0.9131316 0.011608881 -0.3058172

fc2.weight f4 [150, 202]
000000 52 35 15 be 79 3e 3d bd 39 76 bc bc f9 d1 07 bd
       -0.14571121 -0.046202157 -0.023005592 -0.03315923
000010 b4 f6 40 bd ce 3d 9a bc 2e f7 9b 3d 68 7f 6e bd
       -0.047110274 -0.018828299 0.07615505 -0.058226973
000020 70 7e c3 bd 55 9f 21 bd d3 83 ec 3b f8 64 14 bc
       -0.095456004 -0.03945859 0.007217863 -0.009057276
000030 5f d5 db bd ca b8 6c bd cb 7e f0 3b 0f 91 de 3c
       -0.10734057 -0.057793416 0.0073393336 0.027168779
000040 65 0b 01 3d ae 45 ac bc 4a 0d 5e bd a2 70 4a bd
       0.031505007 -0.02102932 -0.054211892 -0.04942382
000050 86 07 7f bd 26 62 cd bd 2d 06 fd 3c 6c 07 80 bd
       -0.062263034 -0.10028486 0.030886734 -0.062514156
000060 4d f8 18 3d ce 68 a1 bd 4f d1 e0 bb 26 0f 59 bc
       0.037346173 -0.07881318 -0.006860889 -0.013248241
000070 bf 41 f9 bd fd 3c f7 3c 2a 3f 8d 39 2e 25 a2 3d
       -0.12170743 0.030180449 0.00026940677 0.07917248
000080 52 fa 69 bc c0 0b aa bd a4 e1 34 bd 72 2e c2 bc
       -0.014280872 -0.083030224 -0.0441605 -0.023703787
000090 47 64 7e bd a5 82 30 3d f6 07 d1 bb a9 6b 54 3c
       -0.06210735 0.043093342 -0.006379123 0.012965121
0000a0 56 60 ad 3b 34 91 19 3d 49 dd 3a bc 1c 77 da bc
       0.005291025 0.037491992 -0.011405298 -0.026668124
0000b0 7a 84 8b 3d 79 65 86 bd ff 9b b1 bd fc 72 db 3c
       0.06812377 -0.06562323 -0.08672332 0.026788227
0000c0 e0 34 74 3d 04 0a 17 3c 40 90 1d 3d e0 d4 9d bc
       0.059620738 0.0092186965 0.038467646 -0.019266546
0000d0 42 f2 b3 3c 50 40 04 bd 20 4b cd 3c b9 59 37 bd
       0.021966103 -0.032287896 0.025060236 -0.0447633
0000e0 d9 ab ac bd 61 b6 a4 bd b8 89 1a 3c 1e 8f e5 bc
       -0.08431215 -0.080425985 0.009432249 -0.028022345
0000f0 e2 08 45 3b 6c 62 8a bd d8 c7 44 bd be ce c0 bd
       0.003006511 -0.06757054 -0.04804215 -0.09414433
000100 ad a2 91 bd a7 aa 8b bc 5d 41 f9 bd 2a 71 ea 3b
       -0.07111106 -0.017049147 -0.1217067 0.0071546035
000110 c9 84 06 3b 30 6a cf bd 3a 4d ce bc 4c 9c 04 3d
       0.0020525923 -0.101276755 -0.025183309 0.03237562
000120 3f e3 95 3c 8d e7 1e be 87 a7 b1 bd b7 2a 5c bd
       0.018296836 -0.15518017 -0.086745314 -0.053751674
000130 a4 45 8d bc b1 76 fc bc ed 14 a0 bd ba 2f 20 be
       -0.017245121 -0.030818315 -0.07816491 -0.15643206
000140 ea 95 36 3d 20 3a 8b bd c5 8b 60 bd 96 41 4f bd
       0.044576563 -0.06798196 -0.054820795 -0.050599657
000150 9d 88 a6 bc 5f 19 5c bd 7a 57 b1 bd 9b 10 b8 bc
       -0.020328814 -0.053735133 -0.08659263 -0.022468856
000160 d8 71 14 bd 35 dc 38 3d 7f ea 46 bc df 17 97 bd
       -0.036241382 0.04513188 -0.012140869 -0.073776
000170 12 2b 53 bd fc 7d 87 3c d8 9a 8a bd 86 e9 02 bd
       -0.051554747 0.016539566 -0.06767815 -0.031960987
000180 1c 1e ee bd 72 e3 9b bd be 47 8d bd 30 28 2d 3c
       -0.11626837 -0.07611741 -0.06898449 0.0105686635
000190 0d 28 51 bc 5f 83 0f be fe d2 83 bd ec e6 ed bd
       -0.0127658965 -0.14014958 -0.06436728 -0.116163105
0001a0 5c bc 17 3c 6d 91 8c bc ef e5 8a bd d7 a4 c9 bd
       0.009261217 -0.017159188 -0.067821376 -0.09845894
0001b0 77 5e 4b bc d6 e9 08 be 1c d9 02 bd a6 08 15 be
       -0.012412659 -0.13370451 -0.031945333 -0.1455408
0001c0 69 6f 12 3d b2 f0 e4 3c 2c fb 61 bd dd 6f d1 bd
       0.03575078 0.027946804 -0.055171177 -0.10226414
0001d0 ea 60 30 bd 2a 52 36 3d 6b 77 b8 bd 4b 3c 24 bd
       -0.043061174 0.04451195 -0.09007152 -0.040096562
0001e0 c0 b7 0b 3b 07 47 fe bc e4 76 0b bd cb af 86 bd
       0.002131924 -0.031039728 -0.03404893 -0.065764986
0001f0 db 10 3f be 38 15 80 3d 1a 50 74 bd ea c8 b6 3c
       -0.18658774 0.06254047 -0.059646703 0.0223126
000200 64 95 67 3d 3d 56 57 bc 1d 8c 91 bc 4b ba 48 3d
       0.056538954 -0.013143119 -0.017767007 0.049005788
000210 5a 9a 8e bd c1 a4 0f be a8 9f a8 3b 4b 5c 75 bd
       -0.06963034 -0.14027692 0.0051459856 -0.05990247
000220 b6 38 19 3d 44 d3 4b bd 7c fb d1 bc f2 f4 01 be
       0.0374076 -0.049762025 -0.025632612 -0.12691095
000230 f7 00 88 bd 99 8a aa bd 4e e3 0d bd 2d 78 03 bd
       -0.06640809 -0.08327217 -0.034640603 -0.03209703
000240 cb eb 9f 3d d7 0c fb bd 2c da 84 3c c1 6b 06 be
       0.07808646 -0.122583084 0.016217314 -0.13127042
000250 b4 cf d0 bd e6 15 ae bd 48 24 25 bd b6 ba 4d 3d
       -0.10195866 -0.085002705 -0.040317804 0.05022689
000260 f3 ee 28 be 80 4f a4 bd 5f 2f 31 bd 55 12 44 bd
       -0.16497402 -0.08022976 -0.043258067 -0.047869045
000270 99 e7 28 be 4c 2a 36 bd 19 6b 42 3d 79 21 c5 bc
       -0.16494597 -0.04447393 0.047465418 -0.024063813
000280 35 fe 4f 3d 40 45 c8 bd ff 21 92 bc bb 8d 49 bd
       0.05077954 -0.097788334 -0.017838476 -0.04920743
000290 7a 95 35 3d eb ce 70 bb 6b c1 c4 3c 51 47 c0 bd
       0.044332005 -0.0036744426 0.02401801 -0.093886025
0002a0 11 e8 6c bd f3 d6 32 bd b0 a8 03 be 99 b1 a9 bc
       -0.057838503 -0.043662023 -0.12857318 -0.020714568
0002b0 85 bc bb 3c 2b ed 93 bd 5b c6 4f 3c 1a 6c 56 bd
       0.022917042 -0.072229706 0.012681569 -0.052349187
0002c0 ba cc c6 bc 07 5d 3a 3d ff be 6c bd 10 03 04 bd
       -0.024267543 0.045498874 -0.057799336 -0.032229483
0002d0 be 50 94 bc f6 12 f1 bc a0 18 26 3c 8d cc 0d be
       -0.018104907 -0.029427987 0.010137707 -0.13847561
0002e0 70 c3 27 bc 7e 32 af bd 1d 3c 8e bc 5a 82 9b bd
       -0.010239467 -0.085545525 -0.017362649 -0.07593222
0002f0 2d 46 e1 bd 70 72 83 bd 48 de 41 3d 57 7e af 3c
       -0.10999713 -0.064183116 0.047331125 0.021422548
000300 ab b3 a0 3c a4 66 0e bd 45 60 bc bc 0f 50 e6 3c
       0.019616922 -0.034765854 -0.022995124 0.028114347
000310 7d 2f 9b bd c0 03 47 bd 1b 5b 80 bc 0b 18 33 bd
       -0.07577417 -0.04858756 -0.015668442 -0.0437241
000320 58 d8 2f bd 12 f2 6c bd 55 9b ca bc cd 10 c3 bd
       -0.04293093 -0.057848044 -0.024732271 -0.09524689
000330 f9 31 6b bd 24 95 aa bd 10 88 2d 3d 6c 29 36 bd
       -0.057420705 -0.083292276 0.042366087 -0.044473097
000340 1c 67 02 3d 36 62 a1 bd b5 85 b1 bd e0 69 06 bd
       0.031836614 -0.078800604 -0.08668081 -0.032815814
000350 a0 b9 d1 bb 40 0a 5e bd a9 e2 c7 bd 1c a4 0d 3c
       -0.006400302 -0.054208994 -0.09760029 0.008645084
000360 53 3d 9d bd 11 b2 56 bd e5 d5 20 be 6a 35 c2 3c
       -0.07677712 -0.05241591 -0.15706594 0.02370711
000370 4c a9 84 bd 18 4f db bd 34 12 35 3b 2b 7e f6 bc
       -0.06477603 -0.10708445 0.0027629258 -0.030089458
000380 1d f7 2b bc 74 b2 c9 bd ec 45 be 3c ec 25 71 3d
       -0.010495928 -0.0984849 0.0232267 0.058874056
000390 38 14 d1 bd 94 f1 d6 3c 96 d7 c4 bd 8f ba ba bd
       -0.102089345 0.02623824 -0.09611432 -0.091176145
0003a0 1d 08 d3 3c b7 0a a0 3c 5f 9e 03 3d c7 09 da bd
       0.025760705 0.01953636 0.032133456 -0.10646396
0003b0 d8 5e cc 3c bc b5 1d 3c 5f 30 97 bd ce e3 85 bd
       0.024947569 0.009625848 -0.07382273 -0.06537591
0003c0 dc 21 b1 bd 64 6d ba bd 3e 02 8e bd ac 81 da bc
       -0.08649036 -0.09102896 -0.069340214 -0.02667316
0003d0 e9 e1 b7 bc 3e b8 60 bd 0a d2 6d 3d e8 a1 00 bb
       -0.02244659 -0.054863207 0.058061637 -0.0019627754
0003e0 ee 3f 94 bd b1 1c 18 bd d6 f3 5e bd e8 92 0d bb
       -0.07238756 -0.037136737 -0.05443176 -0.0021602456
0003f0 a3 62 c4 3c 63 7c 42 3c b3 7f 54 bc f7 ac a0 bd
       0.023972815 0.011870476 -0.012969899 -0.078454904

fc2.bias f4 [150]
000000 b6 c9 f8 bd 61 63 df bd d3 e6 f1 bd 58 56 22 3e
       -0.12147848 -0.10907627 -0.11811604 0.1585325
000010 f5 23 cc bc fd d0 21 be 7d f3 e0 3e 96 c6 ee bd
       -0.02491949 -0.15802379 0.43935767 -0.11658971
000020 94 bf 35 be bd 5d 0e be 04 67 9f bd 97 a4 c6 bc
       -0.17748863 -0.13902946 -0.077833205 -0.024248404
000030 1a 87 13 be b1 ca 1e 3e d0 9c 14 be 5c ee f4 bc
       -0.14407006 0.15507008 -0.14512944 -0.029898815
000040 c2 61 59 bd 57 9a 37 be 1f 46 a4 bd 1f 33 d5 bd
       -0.053071745 -0.1792997 -0.08021187 -0.10410141
000050 d9 2e 89 bd 91 8a ce bd a8 c6 09 be 93 ca 21 be
       -0.066983886 -0.10085023 -0.13454688 -0.15799932
000060 58 a0 13 be b4 92 c8 bd 1e a1 cb bd 54 ce 9a bf
       -0.14416635 -0.097936064 -0.0994284 -1.2094216
000070 c5 b5 34 be c6 47 1b be fb 0f fe 3d 69 23 e3 bd
       -0.17647465 -0.15164098 0.12405392 -0.11090738
000080 e1 db fb bd c7 2c 20 be 16 d5 24 bd 2c 41 fd bd
       -0.12297798 -0.15642081 -0.040242277 -0.12365946
000090 62 d2 dc bd 08 5f 33 be a0 3f fa bd af ae 22 be
       -0.10782315 -0.1751672 -0.12219167 -0.15886949
0000a0 b3 ab cd bd 3a ed 08 be b8 db c0 be a9 63 f3 bd
       -0.10042515 -0.13371745 -0.37667632 -0.11884243
0000b0 79 10 ee bd 70 8e fd bd c0 a5 8a be 55 6e 1f be
       -0.11624236 -0.123806834 -0.27079582 -0.15569432
0000c0 9b 80 3b be 45 05 33 be ae 2b 1c be a0 1a 00 be
       -0.18310778 -0.17482479 -0.15251037 -0.12510157
0000d0 06 0e 14 be 18 61 2c be cd d5 5b bd b9 1e 42 be
       -0.14458475 -0.16833913 -0.053670693 -0.18957032
0000e0 78 81 25 be ad 5a 5f be 7a ab b8 be 66 bf 28 be
       -0.1616267 -0.21811934 -0.36068326 -0.16479263
0000f0 e0 04 29 be e9 65 a9 bd a1 71 cb bd c6 b5 d3 bd
       -0.16505766 -0.08271391 -0.09933782 -0.10337405
000100 60 38 9c bd 9c 4e cd bd 63 ad 0b be b4 4e a2 bd
       -0.0762794 -0.10024759 -0.1364036 -0.07925168
000110 75 0a 89 3e 11 c4 0e be 93 55 3b be 8b fc f1 bd
       0.2676579 -0.13941981 -0.18294363 -0.11815747
000120 be 76 41 be 14 47 95 bd 66 66 a7 bd 35 3e 1d 3f
       -0.18892953 -0.07288948 -0.08173828 0.61423045
000130 a2 1d 77 be 36 50 c8 bd 7d d2 00 be 25 7c 95 bd
       -0.24132398 -0.09780924 -0.12580295 -0.07299069
000140 26 b3 4c be 1c 6f 04 be 83 a9 f1 bd 3b 82 f6 bd
       -0.19990215 -0.1293301 -0.1179991 -0.12036558
000150 c2 cf a4 bd 08 cb 38 bd cd 49 1d bd c2 23 1a be
       -0.08047439 -0.0451155 -0.03840046 -0.15052703
000160 db 2e 2c be 9f 8e 0e be 03 1f 35 bf 4d 98 21 be
       -0.16814749 -0.13921593 -0.70750445 -0.15780754
000170 34 cc 56 be 7b 29 86 bf ec bb 80 be 51 87 66 bd
       -0.20976335 -1.0481409 -0.25143373 -0.05628139
000180 19 0b 3a be 24 01 07 be 35 91 2c be 9c 38 be bd
       -0.18168296 -0.13184029 -0.16852267 -0.09288141
000190 1f 66 62 3d a6 58 97 bd fe fb fa 3d d7 7d 21 be
       0.05527317 -0.07389955 0.12255095 -0.1577066
0001a0 33 30 57 be 8f aa 0b be 55 b6 1c be 3c c7 8d bd
       -0.2101448 -0.13639282 -0.15303929 -0.069227666
0001b0 b9 5b 2c be a2 7f 28 be 68 c8 76 bd d5 91 b1 be
       -0.16831864 -0.16454938 -0.060249716 -0.34681574
0001c0 09 e3 b9 be f4 8a 03 be 34 be 28 bf 56 66 7f bd
       -0.36306027 -0.12845975 -0.65915227 -0.062353455
0001d0 46 74 6e bd 34 94 11 be a9 b2 27 be db 29 f9 bd
       -0.058216356 -0.14216691 -0.16376747 -0.121661864
0001e0 25 24 2a be 06 4c ef bd fa 2a 00 bf 9b de 2e be
       -0.1661535 -0.11684422 -0.5006558 -0.17077105
0001f0 1c 75 d0 bd 5b e1 e4 3e d8 66 03 be c1 cb e2 bd
       -0.10178587 0.44703183 -0.128322 -0.11074019
000200 35 48 cb bd 4b 0c d2 bd 02 5a 83 bd 18 68 9d bd
       -0.09925882 -0.10256251 -0.06413652 -0.0768587
000210 16 6b 47 be 89 02 1b be 04 32 4b 3e 25 48 92 be
       -0.19474444 -0.15137686 0.19843298 -0.28570667
000220 b1 7c f5 be 82 9b 4a be 37 b1 25 be 0e 16 71 be
       -0.47946694 -0.19785884 -0.16180883 -0.2354357
000230 fa cb c7 be 7b e1 1c be d6 3a 12 be 87 cd 87 3f
       -0.3902281 -0.15320389 -0.14280257 1.0609597
000240 a7 1a 70 bd 4a bc ab bd 29 fa 54 be 36 d8 45 be
       -0.058619168 -0.08385523 -0.20798554 -0.19320759
000250 55 90 46 bf f1 e0 4c be
       -0.77563983 -0.20007683

fc3.weight f4 [1, 150]
000000 e1 01 d5 3c 49 5e 82 3c e0 f4 31 3c a0 bb b6 bc
       0.026001872 0.0159141 0.010861605 -0.022306263
000010 7f ad 79 ba 51 79 ed bc d6 d2 7f 3c cd 4d 80 3d
       -0.0009524449 -0.028988512 0.015614232 0.06264839
000020 25 b6 86 bc 3f d5 4f bb 3e 33 c7 bc e1 b2 9c 3c
       -0.016444275 -0.0031712798 -0.024316426 0.019128265
000030 c3 5b 5a bb 4a 43 97 3b cf 42 d5 3b 5c b8 20 bd
       -0.0033318854 0.004616176 0.0065082083 -0.03923832
000040 4b 90 85 3c 40 29 87 3b 80 cc fc 3b 8a 68 38 3c
       0.016304156 0.0041247904 0.007714808 0.011255393
000050 19 6c 05 37 c3 42 40 bc cd 34 13 3b 86 42 7b bc
       7.952586e-06 -0.011734667 0.0022461892 -0.015335685
000060 14 9f 31 bd 9a 39 88 3b 88 1d ab 3c d2 36 c3 bc
       -0.0433646 0.0041572573 0.020888105 -0.023829851
000070 60 50 6a 3d 98 0f 6c 3c 27 66 cc bc 37 19 aa 3c
       0.057205558 0.014408015 -0.024951054 0.020763976
000080 ed 25 06 3c 4f 58 a3 bc e9 64 d1 bb 10 bb c3 3b
       0.008187753 -0.01993957 -0.0063902033 0.0059732273
000090 1a 75 29 3c c3 47 22 3b b2 af 22 bc 3b 06 53 bc
       0.010342861 0.0024762012 -0.009929584 -0.012879903
0000a0 eb f8 d7 3c 02 20 ea bb ea 1d c5 3b 15 5e 13 bb
       0.02636381 -0.007144929 0.006015529 -0.0022486497
0000b0 e1 71 73 bc 71 eb 82 3b 71 cf 86 3c 85 83 d4 ba
       -0.014858694 0.003995352 0.016456338 -0.0016213512
0000c0 35 92 3a 3c 84 30 e5 3c 63 5d 41 3c 3e ca bf bc
       0.011387398 0.027977236 0.01180205 -0.023411866
0000d0 ff 20 e4 bc 10 dd e0 3b 4b 70 44 bb e8 f9 cd 3c
       -0.027847765 0.00686229 -0.0029974158 0.025143579
0000e0 29 84 00 bc cb dc bb 3b e8 6e 26 bd fa 73 bf bb
       -0.007844009 0.0057331077 -0.040633112 -0.005842683
0000f0 e2 4b 1b bb 4d 93 09 bc 6c c1 cc 3a b8 90 d0 bc
       -0.0023696353 -0.008396936 0.0015621609 -0.025459632
000100 b4 fa 58 bb 92 ed 76 bd b2 68 7b 3c c5 90 8a bc
       -0.0033108415 -0.06028516 0.0153447855 -0.016914735
000110 6c 09 0d 3c f9 e8 6f bb 08 f0 7a 3b f7 a6 22 bc
       0.008608203 -0.0036607368 0.0038290042 -0.009927503
000120 0c 0a 6f 3c 5d 55 a6 3c 5f e9 1b 3c 2f c9 b5 3c
       0.014589798 0.020304376 0.009516089 0.022190658
000130 7e 59 fb 3c 6e f5 9d 3c 30 ac 8d 3c d8 ce 66 3c
       0.030682322 0.019282069 0.01729402 0.014087401
000140 04 ed ce bb f2 ed 9a bc 78 44 53 3c 95 d1 f8 ba
       -0.0063148756 -0.01891229 0.012894742 -0.0018983359
000150 a9 5f b9 bc 96 35 9a 3c 52 0a 5f 3b 0d d3 35 bc
       -0.022628622 0.01882438 0.003403325 -0.011097682
000160 8a d3 09 3c 2d 41 89 3c ef 8f 80 bc be 3e 0e 3c
       0.008412251 0.016754711 -0.015693633 0.008681951
000170 79 79 df bc 2b 9f a1 bc 93 fc 93 bb 15 3c 3b 3b
       -0.027279602 -0.019729218 -0.004516193 0.0028569747
000180 be 54 a9 bc fa 73 9b 3b c5 bc 2a 3d 17 ac 8b bc
       -0.020670291 0.00474405 0.04168393 -0.017049832
000190 c0 33 bb bc 9a 8d e3 3b d1 2b 3d 3c eb c8 9d 3c
       -0.022851825 0.0069443705 0.011546091 0.019260844
0001a0 21 3a 96 3c 6b f5 01 3d ed d5 c8 3c b9 6b be ba
       0.018338265 0.03172819 0.02451607 -0.0014527953
0001b0 32 9d d1 3c 15 f7 91 bc a7 b5 2c 3c 51 72 9f 3c
       0.025587652 -0.017818013 0.010541356 0.01946369
0001c0 66 bf 26 3d 3d 24 a8 3c 19 98 b8 bc d7 b4 48 3c
       0.040709876 0.020525092 -0.022533463 0.012250147
0001d0 0b 34 2f bd a0 0e 7a bc e2 a5 93 bd 19 1d ca 3c
       -0.04277424 -0.015262276 -0.07209374 0.024672078
0001e0 cc 93 ca bc e1 a1 f1 3b 0d 8c 11 bd c1 c8 c6 3c
       -0.024728678 0.007374034 -0.035533953 0.024265649
0001f0 e3 ec 1c 3c 60 ad 53 bc 1d 5b a8 bc 29 c7 2a bc
       0.009577963 -0.012919754 -0.020551259 -0.01042346
000200 44 2b 96 bc d1 0b d1 3a b0 2d ce bb be 5a 5c bc
       -0.018331178 0.0015948956 -0.0062920675 -0.013449369
000210 2c 87 85 3c 49 49 fb bb 84 67 a9 3c cb 9b a9 3c
       0.016299807 -0.0076686484 0.020679243 0.02070417
000220 88 31 19 bd ef 34 d0 bc 65 a7 6a 3c ac f3 df 3c
       -0.037400752 -0.025415866 0.0143221365 0.027337871
000230 1d 58 70 3c 1e 1c d7 ba 78 a1 aa bc fc b0 1b 3c
       0.014669445 -0.0016411578 -0.020828947 0.009502646
000240 02 0c 7a bb 1e c1 48 3c 8e cf c3 3c 7e 36 8c 3b
       -0.003815413 0.012253074 0.02390268 0.004278957
000250 37 e9 e9 bc 8e c7 fc 3c
       -0.028553588 0.030856874
